jate_model.pth (torch, 554360 bytes, 8 tensors)

tsm_feature_extractor.joint_encoder.0.weight f4 [32, 3]
00000000: 29d2 f1bd 48c7 ae3e f97d cc3e 02ee 733e
00000010: a608 313e f946 16bf f026 3fbe 080f 32bd
00000020: b837 62bd 0394 e5be 3885 aebd 5027 dcbd
00000030: 7e2e b9bc 9692 763e d862 1b3f 5668 b03d
00000040: 35d6 cdbe 0d6f c5be df3b 85be b6ac 0a3e
00000050: a034 283e 7f4c 48be c252 75bd af7d 293f
00000060: c610 0ebe c67c 08be 3aef 51be 81e7 09bf
00000070: ea39 153f 186d 70be d92b aabe f2f1 dd3d
00000080: d9c1 1dbf ef17 c33e 0cef e7bd 8c41 12bf
00000090: 41f9 e23e f9e6 6c3d 76cc c4bd d49c 25be
000000a0: d9e1 e03e 3170 de3d d0d8 c7be dbd6 a2be
000000b0: 198c f63e ba5a 64be 8a3c 0ebf 81a8 9fbe
000000c0: de67 e93d af5c 013f 5bc6 3b3f ca26 2dbe
000000d0: a93f 04be 9cfd f7be 82b4 ec3e 6a2f bcbd
000000e0: aedb be3e 4047 813d 189b 54bd 8842 1b3e
000000f0: 2897 cdbe 088a 903e d510 ed3e 2d31 013f
00000100: 608b 6abe 1b20 1abf 0408 df3e 6ad0 efbe
00000110: d610 c83e 4a24 2abe 781f e4be f91f bdbe
00000120: 5537 91be f6cd 0bbf c43c 38be 2693 4b3e
00000130: a829 aebe a775 063f 33dd 01bf 982a ea3e
00000140: 358d cf3e 3736 3fbe ce6e dbbe 3183 c53e
00000150: a800 fbbc a835 54bd b826 47bd bae0 27be
00000160: 2edb b43e 071d acbe c6c0 c33e 3402 833e
00000170: 6ba5 5ebd f823 36be f59b e9be 2378 473d
-0.11807663 0.34136415 0.3993986 0.23821262 0.17288455 -0.58702046 -0.18667197 -0.043471366
-0.05522892 -0.44839486 -0.08521503 -0.10749686 -0.022605177 0.24079356 0.606977 0.086136505
-0.4020249 -0.38561288 -0.2602224 0.13542446 0.16426325 -0.19560431 -0.059893377 0.662074
-0.13873586 -0.13328847 -0.20501414 -0.5386887 0.58291495 -0.23479116 -0.33236578 0.10837163
-0.61623913 0.38104197 -0.113248914 -0.57131267 0.4433079 0.05783746 -0.0960931 -0.16173106
0.43922308 0.108612426 -0.39032602 -0.31804547 0.4815376 -0.22300234 -0.55561125 -0.31183246
0.11396764 0.5053205 0.7334954 -0.16909328 -0.1291491 -0.48435676 0.46231467 -0.09188731
0.37276977 0.06312418 -0.05190572 0.15162098 -0.40154386 0.2823031 0.46301904 0.5046566
-0.2290473 -0.6020524 0.43560803 -0.46838695 0.39075345 -0.16615406 -0.4455526 -0.36938456
-0.28362527 -0.54611146 -0.1799193 0.19880351 -0.34016156 0.52523273 -0.5072815 0.4573562
0.4053742 -0.18673025 -0.42857975 0.38576654 -0.030639961 -0.051808983 -0.04862091 -0.1639432
0.3532347 -0.33615896 0.38233012 0.25587618 -0.054356974 -0.17787158 -0.45626798 0.048698556

tsm_feature_extractor.joint_encoder.0.bias f4 [32]
00000000: 4f12 dbbe e090 6c3c 4857 4fbc 582c 16bd
00000010: b494 8bbe c211 b43c 59d8 d7bd f9af 0e3f
00000020: 8e9d ce3e 4800 9f3b 856b 8c3e 377b b4bb
00000030: bfa9 cc3e 6dc0 ebbe 1ce1 ae3e ab8a c3be
00000040: 735f b7bd b217 833e f93e c13e 9088 d8be
00000050: f992 fd3e aaa9 92be d078 f1be 9010 c9be
00000060: 02e2 dabe 80a1 13be 17f5 e93e d8d9 b23e
00000070: 5656 0dbe 4b2a 85be e2f4 acbe ebf5 6e3d
-0.42787406 0.014438838 -0.012655087 -0.036663383 -0.2726189 0.021981124 -0.10539312 0.5573726
0.4035458 0.0048523284 0.2742578 -0.0055078524 0.39973256 -0.46045247 0.3415612 -0.38191733
-0.08953752 0.25604016 0.37743357 -0.4229169 0.49526194 -0.28645068 -0.47162485 -0.3927045
-0.42750555 -0.14417076 0.456948 0.34931827 -0.13802466 -0.2600883 -0.3378058 0.058339994

tsm_feature_extractor.joint_encoder.2.weight f4 [64, 32]
00000000: 8e47 02be f034 2b3e 37f2 1d3e b063 a33c
00000010: 7a25 34be b3fb 9ebe 64ad 65bd cfee 3abe
00000020: 81c4 74bd 55cf 7abe 7830 4ebc b4a1 b13d
00000030: b36d f63d 6536 90bd 699d 22bd 3669 0bbe
00000040: 08d9 5cbe 335f 8e3d da96 173e 50f7 f6bd
00000050: 3476 74bd 891c dabd a2aa dbbd 8874 9bbd
00000060: f69f 14be 8aac 003e 870f f2bc b192 03be
00000070: 4a2a cf3d 8d32 33be b007 153e 03a2 b3bd
00000080: c8e5 a43d 5e36 02be 1871 2b3d 7297 a33d
00000090: 58fa 7a3d 357f 843b f830 48bd e88e 08bd
000000a0: d4d9 1abc da13 353d c7ac 1abe 36f5 ebbd
000000b0: c0bd 06bd a1bd 813e f995 d9bc 2eb6 ae3d
000000c0: ef26 173e 6b27 a5bb 9e17 023e e753 c2bd
000000d0: 0236 883b 783b 5e3e 3c0a 043d 4e59 9c3d
000000e0: f825 be3c 1d80 57bd 21cc c03d 5d99 f2bd
000000f0: 9813 babc 56ed 823e 0b7d 943c 3d0f 88bd
00000100: dde3 0c3e 726e 063e 90e0 b63c 365c df3d
00000110: abd4 e93c 7fac c8bd 8c99 6bbd ff4b 2d3e
00000120: 14b7 723d dc9e 823c aa80 783e 99a7 0fbe
00000130: ca64 04be 06cb 76bd da29 513d 80ed 48bd
00000140: 81d1 37bd a2ce 39bd 699a d1bd 08e9 b13b
00000150: 0cad c43d 78b4 2dbb 6709 bbbd 8f65 afbd
00000160: 01ed 313e 1b9f 923d 4e16 1b3e a6f3 a2bd
00000170: 24c5 41bd ba68 973e c0f9 52be 9367 323e
00000180: 0475 cbbc 4b90 05be fce6 543d 10dd 313d
00000190: 0150 84be 155f 5cbd 0085 81be 473f da3b
000001a0: 93dc 5dbd 59fb 1c3e a7b4 c23d 52d2 22be
000001b0: 4221 e83d ba40 8fbe 1f81 6fbe 3c31 26bd
000001c0: 1076 e7bd 4c08 97bd 0f2a 1dbe 28b7 3e3d
000001d0: 44d8 fbbd 8eda 2dbe 1c74 063d f243 a83d
000001e0: d832 2fbd c75a c8bc 8c9e 30bd 82f4 21be
000001f0: ada7 1f3e 385d 003d 8b73 5fbd 7652 a93c
00000200: 2eb2 993c 940b 3e3e 4881 7b3b 689f 913c
00000210: d49f 9a3d 233e bf3a a480 673e 5512 313d
00000220: 04b1 1abd 1a20 1e3e 4199 953d 73aa ebbd
00000230: d6a0 22be 8953 8c3e 7b7c 503e 8ad0 b53d
00000240: f806 9a3c 1d9c f2bd 171d 12be 868a d83d
00000250: dadd b93d 2458 883e 08b4 6ebb 3fd0 073e
00000260: 7706 0c3e fe52 313e a9ae e3bb 2baa 883d
00000270: f8aa 2b3d f4dc 593c a723 58be 8c22 1f3e
00000280: 109e 173c ba39 39be 2f90 22be 9e82 d13d
00000290: b360 4f3e ab38 8a3e db12 593e 1aa2 37bd
000002a0: e741 18be 1bf2 983d 7703 d03c a97a 923d
000002b0: 33fd 803c 4b1a 1f3d 84fe 483e 70c9 833c
000002c0: 4230 4e3e 0911 ebbd d774 adbd d242 b63d
000002d0: 71c2 9a3d af06 523b 8216 ed3d a8a5 6c3d
000002e0: 88e7 f33a a33a 253d 817e a33b 8a35 a93c
000002f0: e8f4 693d 70f1 1abd 39db d7bc 0131 843d
00000300: 6cb2 6f3d 4e08 1cbe 5ad6 de3d 90cc 7dbd
00000310: 3f0d 6f3e 71e0 0d3d 9186 913c 73e0 ffbd
00000320: 6ff3 b53d e8d1 903d 1a66 c9bd 54ff 58bd
00000330: 1c7c 003e 08a8 be3d 4254 d1bb 2a44 cf3d
00000340: 025e 243d a6f3 fbbd 209a 003e 339b 023e
00000350: b116 2b3e 52cb 4e3e 82d7 9e3d d45a 393d
00000360: 8713 323e c285 26be 27d2 ee3b 7f49 353e
00000370: dab7 33be 21e9 9e3e 0590 0c3e aebd ffbd
00000380: 7e9d 98be 7a5f b13d 2c24 003d 9634 f9bd
00000390: bdcc 5fbe 279e 80be 02e5 85be e03c e13b
000003a0: 0611 223d 71b8 c8bd cf6a 3c3d cc3d 823d
000003b0: 3ac2 d4bd 736d b0bd 4657 ad3c f074 e3bd
000003c0: 5f3d 14be c28b bb3b d1ac 903d 410c 273e
000003d0: 5f05 d83c 1c83 c4bd 19c4 9cbd aec7 f83d
000003e0: 3ab2 d43d 7aa4 39be 28d9 c8bd f13d 90bd
000003f0: 60a9 6ebd 8ea9 9abd cfec 23be 7ef7 caba
-0.12722608 0.16719413 0.15424429 0.019944996 -0.17592421 -0.31051406 -0.05607356 -0.18255161
-0.059757713 -0.24493153 -0.012584798 0.086734205 0.12032642 -0.07041625 -0.0397009 -0.13614354
-0.21567166 0.069517516 0.14803639 -0.1205889 -0.05968304 -0.10649974 -0.10725905 -0.07590586
-0.14514145 0.12565818 -0.02954842 -0.12848927 0.10115488 -0.17499752 0.14553714 -0.08771136
0.0805164 -0.12716052 0.0418559 0.0798787 0.061273903 0.0040434846 -0.048874825 -0.03333941
-0.009451348 0.044208385 -0.15104972 -0.1152138 -0.032895803 0.25339988 -0.02656077 0.08530842
0.14760946 -0.0050400994 0.12704322 -0.09488659 0.004156829 0.21702373 0.032236323 0.07634221
0.023211464 -0.052612413 0.094139345 -0.11845658 -0.022714421 0.25571698 0.018126031 -0.066435315
0.13758798 0.13128069 0.022323877 0.1090626 0.02854379 -0.09798526 -0.05751948 0.16923521
0.05925663 0.01594489 0.24267831 -0.14028777 -0.12929073 -0.060252212 0.051065303 -0.049054623
-0.044877533 -0.045363076 -0.102345295 0.005429391 0.096033186 -0.0026505273 -0.09132653 -0.08564293
0.17375566 0.07159253 0.15145227 -0.079566285 -0.04730715 0.29572088 -0.20603085 0.17422323
-0.02483607 -0.13043325 0.051978096 0.043423712 -0.25842288 -0.053801615 -0.25296783 0.0066603753
-0.054165434 0.15330257 0.09507113 -0.15900543 0.113344684 -0.2797907 -0.233891 -0.040574297
-0.113018155 -0.073746294 -0.15348075 0.04656139 -0.12297109 -0.16977903 0.032825574 0.082160845
-0.042773098 -0.024457349 -0.043119952 -0.15815929 0.15591307 0.0313389 -0.05455355 0.020669203
0.01876172 0.18559104 0.0038376618 0.017776206 0.07550016 0.0014590662 0.22607666 0.043230373
-0.03776647 0.15441933 0.073046215 -0.1150712 -0.15881667 0.27407482 0.20359986 0.08877666
0.018802151 -0.118461825 -0.1426891 0.10573296 0.09075518 0.26629746 -0.0036423225 0.13263033
0.13674341 0.17316815 -0.0069483113 0.06673082 0.041911095 0.013297308 -0.2110735 0.15540522
0.009253994 -0.18088427 -0.15875314 0.102299914 0.20251732 0.2699636 0.21198599 -0.044832326
-0.1486889 0.07468053 0.025392277 0.07152302 0.015745735 0.038843434 0.1962834 0.016087264
0.20135596 -0.114778586 -0.08469551 0.08899464 0.07556618 0.003204744 0.11576559 0.05777517
0.001860843 0.040339123 0.0049894457 0.020655412 0.057118326 -0.03782791 -0.02634965 0.06454659
0.058519766 -0.15237543 0.10880728 -0.061962664 0.23344897 0.034637872 0.017764362 -0.12493982
0.08884322 0.070712864 -0.098339275 -0.052977875 0.12547344 0.09309393 -0.006388218 0.10120423
0.040128715 -0.123023316 0.12558794 0.12754516 0.16707875 0.20194748 0.077559486 0.045252636
0.17390262 -0.16261962 0.0072882357 0.17703818 -0.17550603 0.31037238 0.13726814 -0.124873504
-0.29807657 0.08660789 0.031284496 -0.12168233 -0.21855445 -0.2512066 -0.26151282 0.006873712
0.039567016 -0.098008044 0.046000298 0.06359443 -0.10388608 -0.08614626 0.02115978 -0.111062884
-0.14476536 0.0057234475 0.07064212 0.16313268 0.026369749 -0.0959532 -0.0765459 0.12147461
0.103855565 -0.18129149 -0.09807044 -0.070430644 -0.058266997 -0.07551871 -0.16008304 -0.0015485135

tsm_feature_extractor.joint_encoder.2.bias f4 [64]
00000000: 1f11 8b3c 29ab 96bd c98a 10be a788 2d3e
00000010: 5777 9b3c 9573 003e 3482 02be e6de 00bd
00000020: 29a5 27be 4741 17be b215 1b3e 579c fa3d
00000030: 05c3 83bd 0421 d43d 3437 88bc 0f5c d93d
00000040: 1353 a53d 03fd 193e 0a9c 713d 9beb b3bd
00000050: 5ef1 8abd b2fb 313d c6f6 eb3b cb74 9abd
00000060: d95e 33bd df7e 2cbd a080 95bd 31e5 823c
00000070: 7ba3 8f3d c1c9 03be fed6 b43d cf77 b3bc
00000080: fecb 5f3c 2e87 f03d 4c1e b3bc d29d 2abe
00000090: 3834 7f3b 9247 ae3c 10d7 8dbb bf7f 07be
000000a0: de37 3c3e 6b2c f63c 5d7a 083e 9fb5 a93d
000000b0: f188 38be 8046 fd3d 8a3f 0a3e f8f0 113e
000000c0: 034a ebbb 20e8 0cbd bad8 a13d 68b4 d73b
000000d0: 41d9 3b3c adce 4a3d df23 a7bd 7cd6 84bd
000000e0: be1d 68bc 8e04 eebd 7d10 dfbd 7e39 04bd
000000f0: bae9 e4bd c67a 18be 6a34 5e3c ec1e 2bbd
0.016975937 -0.07356865 -0.14115442 0.1694666 0.018977804 0.12544091 -0.12744981 -0.031462573
-0.16371597 -0.14770995 0.15144995 0.12236851 -0.064336814 0.1035786 -0.016627885 0.10613262
0.08072486 0.15037923 0.0589867 -0.087851726 -0.067843184 0.043452926 0.0072010485 -0.07541808
-0.043791626 -0.04211318 -0.07299924 0.015978428 0.07013603 -0.12869932 0.08830069 -0.021907715
0.013659475 0.117445335 -0.021865033 -0.16661766 0.0038941037 0.021274362 -0.004328616 -0.13232325
0.18380687 0.030050477 0.13327928 0.082865946 -0.18020989 0.123669624 0.135008 0.14252079
-0.0071804537 -0.03440106 0.079026654 0.0065827854 0.011465372 0.049513508 -0.08161139 -0.06486222
-0.014167247 -0.116219625 -0.10891817 -0.03228139 -0.11177392 -0.14890584 0.013562301 -0.041777536

tsm_feature_extractor.temporal_fc.weight f4 [64, 2112]
00000000: 769e 223d 5334 143c 9006 b6bc 42af be3c
00000010: f52b 76bc 5250 bebc 7a21 a3bc 61d7 a43c
00000020: 7ac3 c93b 3f16 a23c ebf8 aabc db88 5bbc
00000030: cb59 313c 592a e73b 9012 4fbb e405 efbc
00000040: f827 dd3b 05e8 40bc 7cc4 0e3d 91c7 13bd
00000050: 69c8 a63c 08f6 8abc 2fa8 fc3a 5cd0 87bc
00000060: 8c2f 4c3b e089 693c a3b0 d4bb 84ba 73bd
00000070: f481 e8bb 434d adbc 0c3e d43a d6d3 3339
00000080: 3faa 12bc 1e4a 19bc 7f1b 99bb c68c dd3c
00000090: 1b80 58bb 49c3 b9bb e388 993b c8eb 2cbc
000000a0: 1e3a 3d3c c68c b03c 531e 143c 4967 c83c
000000b0: cbf5 fdbb ba00 523c 5479 643c 3c15 253c
000000c0: 73db 18bd 7605 723c 1cb6 88bc 7f12 01bc
000000d0: fb9a f8bc 9949 91bc 1d43 48bc 03f3 d6bb
000000e0: e571 31bc 1d81 9f3b 55ab 00bc 3621 223b
000000f0: 6e79 cebc 857f 0ebd 90ae 3239 8c67 643c
00000100: 9a3b 1f3c 2c17 94bc 748e 89bc 3637 0e3b
00000110: 8bca a6bc abb6 06bc abda aabc e55a 073c
00000120: 14d3 f9bc b813 183c d5fd 16bc 6caa 663c
00000130: d240 503c 19fd f63c 4a43 6d3c e854 a2bb
00000140: ad5b 56bc fea2 81bc fa87 203d 4e6c c6bc
00000150: be27 bf3c 300d f93b 0eb4 02bb ad7b 04bc
00000160: b8c6 8d3b a04c 53bb 09c2 363c b643 9fbd
00000170: 733d 2e3d 7498 39bb aa73 a03c bcb8 ddbc
00000180: 91b9 d83a 2863 38bc 5408 783c 19db 183d
00000190: 0983 193c 40b8 afbc 36d9 143d 7e55 8d3b
000001a0: 6391 e63c cf29 353a a874 a83b 804e c93c
000001b0: eb70 0a3c dde5 2a3c 77ad 49bc 23f8 3eba
000001c0: bda8 d8bc f393 40bc 9c7d 27bb 5753 823c
000001d0: 9cd7 1cbd d5fb 5cbc e77f 39bd b544 843c
000001e0: bbba f0bb 1c11 853b 133f 74bc d87e d63b
000001f0: d15d 7dbd 22e2 3abc 5de5 0fbd 39c6 323c
00000200: 45b1 1b3d 13fb 59bc fc55 13bc a2b9 103c
00000210: 8a86 a6bc b870 d73b 7b36 16bc 35bd 8a38
00000220: b622 bfbc 29c3 18bc 0027 00bd 5508 afbb
00000230: fc7f e9bb e058 613c 4c5f f5bb adea f0bb
00000240: ce1e 87bc 5c8a b9bc 7e86 9f3c 3ae0 32bd
00000250: a46f 533c bd3d b33b 1b1f c4bc 5f05 273b
00000260: 3706 18bb 1004 df3a 64c3 34bc 2908 8dbd
00000270: 19eb 183c 8b13 e43b b3d3 2dbc 3abe 953b
00000280: ccaf f4bc 1cbf 04bb bbf4 383c cd3c 6b3c
00000290: d1fd 7bba 3aaa e03b f397 e83c 76a2 803c
000002a0: 7fa0 14bc 7751 bf3b 6067 b3bc 0642 983c
000002b0: 8caf 443b 5a4c c93b f7f4 d0bb 52a8 08bc
000002c0: 29b9 19bb 4ab8 83bc 7fe0 32bc b52d 8a3c
000002d0: c671 aabc 0c0e f4bc b989 92bc 3d4a 25bc
000002e0: a3fe 1ebd c6dc eaba e927 bbbb ffcb c03b
000002f0: 5eb6 81bd ef98 48bd b862 643a ab19 62bc
00000300: 86a7 323c d36c b6bb 7a9c 713b 99ea bb3c
00000310: 66f2 c1bc 26c8 e5bc 07c4 3cbc 7640 b3bb
00000320: aba6 8cbc d897 ee3a 40f3 18bd aa40 40bc
00000330: 239e 27bb f4e6 ed3c 2538 d83a ff9b f4bb
00000340: 0851 b23c 3fa9 743c 9d2b 0f3d 036e 13bd
00000350: 8711 f23c 86c7 7bbc 3ed8 bcba b2f3 9ebc
00000360: 6d4d 303c 5164 d33c f21d 173a 21ef 53bd
00000370: dce2 ab3b 3a10 983b 0e48 f8bb d8b8 f0bc
00000380: 763e 5ebb df12 ea3a 4e93 8ebc 5266 023d
00000390: 5114 36bc 428c c0bc a19a ca3c f84b 493b
000003a0: 4290 d23c 9fe6 14bc 686b 033b 9b56 193c
000003b0: 9f39 a13c 2c72 7a3c f049 b8bb 4389 923c
000003c0: aead 17bd a3bb b0bc 1b1f 6dbc 234b acbb
000003d0: 0567 a3bb 8cb1 b1bc 93b9 90bc 495a 6fbb
000003e0: b9a0 edbc 5139 a1b9 47c9 11bc ba0c 0139
000003f0: 4dfb f9bc 9b38 7abc 1870 9abc 8de9 3fbb
0.0397019 0.009045678 -0.022219926 0.023276929 -0.015025129 -0.02323166 -0.019913424 0.020122232
0.006157336 0.019785998 -0.020870646 -0.013399328 0.010824631 0.007054609 -0.0031596757 -0.029177614
0.0067491494 -0.011774068 0.03485535 -0.036078993 0.020359235 -0.01696302 0.0019276197 -0.016578846
0.003115627 0.014254063 -0.0064907833 -0.059504047 -0.0070955697 -0.021155005 0.0016192808 0.00017149685
-0.008951723 -0.00935605 -0.0046724672 0.027044665 -0.0033035341 -0.0056690318 0.0046855076 -0.0105542615
0.011549501 0.021551501 0.009040433 0.024463313 -0.007750248 0.012817556 0.0139449425 0.010075863
-0.037318658 0.01477181 -0.016688399 -0.007877945 -0.030347338 -0.01773529 -0.012223032 -0.006559731
-0.010830377 0.0048676864 -0.007853349 0.0024739034 -0.025204387 -0.03478958 0.00017040432 0.013940703
0.0097188 -0.018077455 -0.01679156 0.0021700389 -0.020360252 -0.008222262 -0.020856222 0.008261417
-0.030496158 0.009282045 -0.009215792 0.014078718 0.012710767 0.030149983 0.014481375 -0.0049539693
-0.013083381 -0.015824791 0.039192177 -0.024221566 0.02333438 0.007600449 -0.0019943747 -0.008086127
0.0043266676 -0.0032241717 0.01115466 -0.07776587 0.04253907 -0.002831963 0.019586403 -0.027065627
0.0016534795 -0.011254109 0.015138704 0.037318323 0.00936962 -0.021450162 0.03633996 0.00431317
0.028145498 0.0006910832 0.0051408596 0.024573565 0.008449773 0.01043078 -0.012309424 -0.00072849
-0.026447648 -0.011754024 -0.0025557047 0.01590888 -0.03829156 -0.013487776 -0.045287993 0.016146043
-0.0073464788 0.0040608775 -0.014907616 0.0065458827 -0.06185705 -0.011406453 -0.035130847 0.010911518
0.038010854 -0.01330449 -0.008992668 0.008833321 -0.020327825 0.0065747164 -0.009168263 6.615595e-05
-0.023331981 -0.009323874 -0.031287193 -0.0053415694 -0.0071258526 0.0137541 -0.007488167 -0.0073521943
-0.016494181 -0.022648983 0.01947331 -0.04367087 0.012905035 0.0054700063 -0.023940613 0.002548538
-0.0023197064 0.001701476 -0.011032913 -0.06886322 0.009333395 0.0069603375 -0.010609555 0.004569796
-0.029868983 -0.0020255512 0.011288817 0.014357758 -0.0009612712 0.00685623 0.028392768 0.015702467
-0.009071468 0.005838569 -0.021899879 0.01858617 0.003001186 0.006143135 -0.0063768583 -0.008340912
-0.0023456311 -0.016079087 -0.010917782 0.016867498 -0.020806205 -0.029791854 -0.017887937 -0.010088501
-0.03881706 -0.0017918579 -0.005711545 0.005883693 -0.06333612 -0.048973974 0.000871222 -0.013800065
0.0109041985 -0.005567172 0.003686695 0.022939013 -0.023675155 -0.02804954 -0.011521346 -0.005470331
-0.017169317 0.0018203212 -0.037341356 -0.011734167 -0.0025576435 0.029040791 0.0016496225 -0.0074648852
0.021767154 0.01493293 0.034953702 -0.035993587 0.029549373 -0.015367394 -0.0014407707 -0.019403312
0.010760647 0.02580467 0.0005764655 -0.051741723 0.0052455496 0.004640606 -0.007576949 -0.029385015
-0.0033911741 0.0017858407 -0.017404225 0.03183586 -0.011113242 -0.02350438 0.024731936 0.0030715447
0.025703553 -0.0090881875 0.0020053033 0.009359027 0.019680796 0.01528601 -0.0056240484 0.017887717
-0.03703087 -0.021573847 -0.014472748 -0.0052579804 -0.004986646 -0.021691106 -0.017666614 -0.003652232
-0.029007303 -0.00030751017 -0.008898086 0.0001230714 -0.030515337 -0.015272285 -0.018852279 -0.0029283494

tsm_feature_extractor.temporal_fc.bias f4 [64]
00000000: dbbd 183c c8e0 2dbc 9d44 26bc 492b 1cbc
00000010: 2cc6 c3bc b98d 7abb 7aec 823c 1043 b7bb
00000020: edf6 dfba e7e1 ca3a f7ce 3d3c 47fa 5dbc
00000030: ec88 a23c 74e2 4fba 1d7d 98bb 7243 82bc
00000040: f0ad 203c 937a a6bc b2cf 43bc 6c41 3abc
00000050: 6fab cebb 29e0 a23b c139 86bc 8645 5c3c
00000060: 07d0 873c 7e07 b13c 7053 93bb 5685 a0bb
00000070: 5706 1bbc 38a1 83bc d4d7 f8bb a12e 893b
00000080: 688b efbb e2e6 373c e388 80bc b862 80bc
00000090: e93d cb3c 9969 113c 131b e4b9 3af9 8d3c
000000a0: c463 96b9 c525 94bc 8497 65bc b19a 62bc
000000b0: 41fd 2abc 285d 87bb 6cab a33c 3317 1b3c
000000c0: c1b5 b8bc bf7f 333c 42fb 793c f366 1a3c
000000d0: bec1 80bc 5ef3 763c 9962 c6bc f210 c63c
000000e0: 6a80 85bb ac93 293c bd61 a6bc 9526 b93c
000000f0: c71f 7dbc dc8b 4d3c 9520 66bc b8f8 1f3c
0.009322609 -0.010612674 -0.010148195 -0.009531804 -0.023898207 -0.0038231446 0.015981901 -0.0055927113
-0.001708714 0.0015478701 0.011584989 -0.01354844 0.01984068 -0.00079301675 -0.0046535865 -0.015901301
0.009807095 -0.02032212 -0.011951374 -0.011368137 -0.0063070576 0.0049705696 -0.016384961 0.01344431
0.016578687 0.021610018 -0.0044960305 -0.0048987074 -0.009461961 -0.016068086 -0.007594088 0.004186467
-0.0073103197 0.01122448 -0.015690273 -0.015672073 0.024809795 0.008875274 -0.0004350772 0.017330755
-0.0002868456 -0.018084416 -0.014013175 -0.013830827 -0.010436357 -0.004130978 0.019979201 0.00946598
-0.022547605 0.01095575 0.015257658 0.009423959 -0.015717383 0.015072672 -0.024216937 0.024178002
-0.004074146 0.010350149 -0.020310277 0.022601405 -0.015449471 0.012545552 -0.014045854 0.009763889

classifier.weight f4 [3, 64]
00000000: a2dc 08be 3213 f63d b0ca bfbc a758 46bd
00000010: 12aa 403d fcac 373e a860 40bd 57c0 26be
00000020: eefe 08be f353 3b3e 90e3 003e 3aef fb3d
00000030: 8e59 063e 54a2 1bbe 4d21 403e 645a 803d
00000040: 6cdc 9d3d 30df 973d 8a03 5abd f149 dabd
00000050: 01f1 cfbd 409e 05be 4082 0b3e 8619 66bd
00000060: ae0e 193e 6e48 533c aaee 24be 6ae3 933d
00000070: fe85 413d bd64 0bbe 9c39 ca3d 7ae1 af3d
00000080: 9243 3f3e 9cd2 dbbc 6378 debc 9323 0a3e
00000090: e826 da3d 00fe f63d 3e94 a4bd e653 193e
000000a0: d40c 383e b46e 1ebe a130 3fbe 4859 1fbd
000000b0: 4b89 3f3e a324 a3bd 70dd 0fbe 7465 2b3e
000000c0: 9ec1 c53a b671 8abd d104 1bbe 9be4 e6bd
000000d0: 95fb 463e 5763 b6bd 39e3 9cbd 1ea9 003e
000000e0: b214 37be b680 e63d f012 a63d 55ff 103e
000000f0: 9eb7 133d 21fc afbd 6aef 713d d04c 17bd
00000100: ec8e 033e afc9 8abd 4348 f4bd 730d a739
00000110: 75a6 11be ee64 923d 9040 66bd ea96 ad3c
00000120: 3299 1dbd d364 bb3d 5f9a e5bd 943f a43c
00000130: d215 f9bc b97c 0c3e 72d9 c4bd 00eb 46bd
00000140: 297a eb3c fd92 e3bd 9a42 04be 6b58 d0bd
00000150: 38e5 a63d 381e a23d 4e12 bbbb 09cc 7d3d
00000160: dbff f4bd 0c03 e9bd 3c0d 9abd 8901 e4bd
00000170: c590 b5bd f2a9 50bd 637d 49bc 10fa bbbd
00000180: d8b9 313d 8d76 84bd bd60 bf3d e726 e2bd
00000190: 3820 a33d e976 b13d 32be 093e d15d a83b
000001a0: 967e cabd 38f3 f23d 5146 cfbc 64cc cd3d
000001b0: 856f 09bd 9a97 4abd 5947 c23d 89b1 37bd
000001c0: df35 babd c562 613d 0733 de3d 8e7a 603d
000001d0: d0be 953d edb9 c0bd 93a7 70bd 0964 64bd
000001e0: e235 cf3d 805e eebd a9f2 013e 1d2b c03d
000001f0: 4e82 e4bd ef30 15be 3a08 bc3d c414 983d
00000200: 6281 8dbc de3a 943d 4cee dbbd 7d95 743d
00000210: 76aa 2c3d 3201 30be 73fe f73d a2cb d73d
00000220: 0057 fb3d 363b 0cbc f5e6 d0ba b411 933b
00000230: 89db 9fbd 9fc3 973d 7087 15be b839 f2bd
00000240: 3670 62bd 7a7b 353c f2a6 c13d 5b3e 233e
00000250: e9ae cb3d c7af fbbd 2ef9 94bd 02af 1a3e
00000260: 83bf bdbd 263b 26bd 2d0c bc3d f3b7 2c3c
00000270: 9a31 b93d 714c 4cbd 064a 9dbd 065f 1c3c
00000280: c0e6 7e3d 44d0 2b3e df12 06be e34a b33d
00000290: dba1 81bd db71 2bbe 9f01 a9bd c332 c13d
000002a0: d346 81bb 4288 153d 075b 573d a31f dd3d
000002b0: 2726 f9bc 6836 043e 5018 fa3c 2d29 dcbd
000002c0: 4195 193e c97a 24be 4287 74bd d7b5 7bbd
000002d0: 473b c13a b280 8dbb 1e05 d63d 69df 2cbd
000002e0: e6d8 973d 20b0 14be 5e42 35bd bc01 56bd
000002f0: 8f0c 0bbe b962 993d 010e 91bd abfa 4a3c
-0.13365415 0.1201538 -0.023412079 -0.04842439 0.04703719 0.17937082 -0.04696718 -0.1628431
-0.13378498 0.18293743 0.12586808 0.12301488 0.131201 -0.15198642 0.18762703 0.06267241
0.07708058 0.074156165 -0.05322603 -0.106586345 -0.1015339 -0.13048649 0.13623905 -0.056176685
0.14947006 0.012895687 -0.16106668 0.0722111 0.047246926 -0.13612647 0.09874269 0.08587928
0.1867812 -0.026833825 -0.027157014 0.13490133 0.10651952 0.120601654 -0.080360875 0.14973411
0.17973644 -0.15471917 -0.18670894 -0.038903505 0.18704717 -0.07965972 -0.14049315 0.1673792
0.001508761 -0.0675997 -0.15138556 -0.11274072 0.19431908 -0.08905666 -0.07660527 0.12564513
-0.17878988 0.112550184 0.08109081 0.14159901 0.036063783 -0.08593012 0.059066214 -0.03693849
0.12847489 -0.06776749 -0.11927845 0.00031862743 -0.14223655 0.07148157 -0.056213915 0.021190125
-0.038476177 0.0915009 -0.112110846 0.020049848 -0.030405913 0.13719453 -0.09611787 -0.048563957
0.028744774 -0.1111202 -0.12916031 -0.101731144 0.08149189 0.0791592 -0.005708969 0.06196216
-0.11962863 -0.11377534 -0.075220555 -0.11133105 -0.08865503 -0.050943322 -0.012297961 -0.09178555
0.043390125 -0.06467924 0.09344623 -0.11042576 0.079651296 0.086652584 0.1345146 0.005138137
-0.098874256 0.118627965 -0.025302084 0.1004875 -0.03355362 -0.049460985 0.09486265 -0.044847045
-0.09092306 0.055025835 0.108495764 0.054804377 0.07311785 -0.094104625 -0.05875356 -0.055759463
0.10117699 -0.11639118 0.12690224 0.09383223 -0.11157666 -0.14569448 0.091812566 0.07425836
-0.017273609 0.072377905 -0.10738811 0.059712876 0.04215475 -0.17187956 0.12109079 0.10536887
0.12272453 -0.008559039 -0.0015937971 0.0044881944 -0.07805545 0.07410359 -0.14602447 -0.11827415
-0.055282794 0.011076802 0.094556704 0.15941755 0.09945471 -0.12289386 -0.0727409 0.15105823
-0.092650436 -0.040583752 0.0918201 0.010541904 0.09042664 -0.049877588 -0.076801345 0.00954414
0.06223178 0.16778666 -0.13093136 0.08754518 -0.063296996 -0.16742651 -0.08252262 0.0943351
-0.0039452105 0.0365069 0.052577045 0.1079705 -0.0304137 0.1291138 0.030529171 -0.10750041
0.14998342 -0.16062464 -0.059699304 -0.061452713 0.0014742397 -0.00431832 0.10450195 -0.042205248
0.07414417 -0.14520311 -0.044252746 -0.052247748 -0.1357901 0.07489533 -0.07082749 0.012388865

classifier.bias f4 [3]
00000000: 5f98 abbd dc39 f13d e7e2 233d
-0.08378672 0.11778614 0.040011313
